individual_project/outputs/mapper_state.pth (torch, 5836 bytes, 1 tensors)

linear.weight f4 [32, 32]
-7.916752 -3.6055431 -13.329841 7.9390492 -5.2344246 -6.3818955 10.124826 5.517238
9.62151 3.9123077 4.1013985 2.708755 -9.281297 11.166541 2.116553 14.502901
-9.459436 -0.94501376 11.576117 11.6010895 -1.2561015 10.081611 3.1679842 -9.458842
8.644104 -8.25117 -9.860772 10.57083 -12.015493 4.972041 -12.31976 9.268536
-3.8342342 -1.6626956 -7.4528093 3.92139 -2.3847582 -2.9132721 5.302847 2.4689078
4.863502 1.7853982 1.8616147 1.3391392 -4.6806855 5.8136215 0.98775727 8.370521
-4.80668 -0.5227284 6.063808 6.100649 -0.63946956 5.359487 1.4971756 -4.811077
4.4575267 -4.042207 -4.892254 5.4585977 -6.484826 2.266479 -6.7554255 4.726177
-10.300211 -5.124958 -15.930049 9.928835 -7.024314 -8.523456 12.957684 7.2482624
12.139181 5.3150587 5.164634 3.5401235 -12.027566 13.887362 2.879196 17.480164
-12.206178 -1.485497 14.463478 14.188604 -1.5393392 12.636799 4.523035 -12.230295
11.10769 -10.437075 -12.317786 13.26533 -14.661177 6.977927 -15.365456 11.821923
3.9895482 1.5681579 7.0885625 -3.8453567 2.220907 2.9877412 -5.122607 -2.5588584
-4.6419415 -1.88464 -1.8694202 -1.2332363 4.4592676 -5.8011756 -0.67472285 -8.037114
4.7785163 0.23387483 -6.142567 -6.017448 0.51185304 -5.18783 -1.467155 4.6064305
-4.244234 3.8281026 4.841803 -5.510722 6.1549993 -2.4009883 6.521068 -4.7575665
3.9211354 1.5654758 7.227371 -3.5660295 2.135356 3.0209188 -5.082134 -2.4597702
-4.730553 -1.9103707 -1.6402563 -1.1548772 4.6208076 -5.764019 -0.70520544 -8.122796
4.630612 0.42846018 -5.863661 -5.7447124 0.63653105 -5.1071587 -1.3228503 4.5734167
-4.2053204 3.7061346 4.9511395 -5.4528794 6.298047 -2.198967 6.5649486 -4.651575
-6.3708525 -2.8987675 -11.25259 6.137921 -4.0416336 -5.1617904 8.3548975 4.4478397
7.8100696 3.0740855 3.006085 2.0681741 -7.6242814 9.234442 1.4675333 12.4021845
-8.018197 -0.68047744 9.889609 9.491936 -0.8597312 8.42978 2.5579474 -7.9316645
7.2614465 -6.540729 -8.011638 8.825345 -10.144742 4.094259 -10.5453615 7.676329
0.91207176 0.4714352 1.6339977 -0.80325115 0.46714395 0.5886452 -1.062641 -0.43817526
-1.1539763 -0.41274604 -0.18947342 -0.15115316 0.97682625 -1.3616303 -0.27182305 -2.0785582
0.9547997 0.13543776 -1.2307329 -1.2439303 -0.06408211 -1.1947402 -0.2991819 1.1805508
-0.87137467 0.76867247 1.1174484 -1.2459923 1.2956021 -0.3303705 1.4123828 -1.0220405
0.97118217 0.5803789 2.4738274 -1.0323937 0.54706126 0.6883205 -1.7225049 -0.5716504
-1.3368802 -0.35357615 -0.39654574 -0.2739324 1.4090267 -1.9234344 -0.38872522 -2.874883
1.5208924 0.023156166 -1.9479892 -1.989182 0.10156486 -1.6798823 -0.5081226 1.5031122
-1.3381281 1.2779697 1.4367088 -1.8117543 1.9739455 -0.7486129 2.0660377 -1.5804343
00000000: 0856 fdc0 38c1 66c0 0747 55c1 b10c fe40
00000010: 6880 a7c0 7d38 ccc0 4aff 2141 378d b040
00000020: b4f1 1941 4063 7a40 a83e 8340 3e5c 2d40
00000030: 3180 14c1 27aa 3241 9b75 0740 e20b 6841
00000040: da59 17c1 6cec 71bf c637 3941 109e 3941
00000050: efc7 a0bf 474e 2141 41c0 4a40 6b57 17c1
00000060: 404e 0a41 cb04 04c1 b9c5 1dc1 1f22 2941
00000070: 763f 40c1 f61a 9f40 bd1d 45c1 ec4b 1441
00000080: 1864 75c0 36d3 d4bf 6a7d eec0 0ef8 7a40
00000090: e19f 18c0 0d73 3ac0 ecb0 a940 9602 1e40
000000a0: cfa1 9b40 ee87 e43f 6449 ee3f ea68 ab3f
000000b0: 2dc8 95c0 3009 ba40 a9dd 7c3f a7ed 0541
000000c0: 53d0 99c0 87d1 05bf b70a c240 8438 c340
000000d0: 47b4 23bf eb80 ab40 73a3 bf3f 58f4 99c0
000000e0: 0fa4 8e40 c259 81c0 588d 9cc0 d5ac ae40
000000f0: b283 cfc0 fe0d 1140 722c d8c0 d83c 9740
00000100: aacd 24c1 a8ff a3c0 7be1 7ec1 82dc 1e41
00000110: 2ec7 e0c0 1360 08c1 ac52 4f41 c4f1 e740
00000120: 163a 4241 f614 aa40 af44 a540 6291 6240
00000130: e970 40c1 a232 5e41 bf44 3840 60d7 8b41
00000140: 814c 43c1 c424 bebf 686a 6741 8604 6341
00000150: 1109 c5bf 5430 4a41 b4bc 9040 4aaf 43c1
00000160: 19b9 3141 42fe 26c1 a715 45c1 cb3e 5441
00000170: 2e94 6ac1 2e4b df40 e8d8 75c1 9926 3d41
00000180: c254 7f40 66b9 c83f 81d5 e240 531a 76c0
00000190: 5723 0e40 2737 3f40 66ec a3c0 56c4 23c0
000001a0: c98a 94c0 e23b f1bf 2949 efbf b0da 9dbf
000001b0: 52b2 8e40 3ba3 b9c0 a3ba 2cbf 0598 00c1
000001c0: 9be9 9840 e27c 6f3e e98f c4c0 ef8e c0c0
000001d0: cd08 033f b402 a6c0 bccb bbbf e167 9340
000001e0: c4d0 87c0 a2ff 7440 0df0 9a40 d657 b0c0
000001f0: c1f5 c440 cba9 19c0 97ac d040 fc3d 98c0
00000200: e2f3 7a40 8361 c83f a046 e740 d439 64c0
00000210: aca9 0840 bc56 4140 d7a0 a2c0 e06c 1dc0
00000220: b160 97c0 0787 f4bf ebf3 d1bf 04d3 93bf
00000230: a8dd 9340 d872 b8c0 5888 34bf f9f6 01c1
00000240: f92d 9440 225f db3e 1ca3 bbc0 afd4 b7c0
00000250: b3f3 223f d86d a3c0 2953 a9bf 6e59 9240
00000260: fc91 86c0 4f31 6d40 bc6f 9e40 fd7d aec0
00000270: 9a89 c940 e0bb 0cc0 0f14 d240 b4d9 94c0
00000280: 06de cbc0 6885 39c0 9c0a 34c1 d969 c440
00000290: 1055 81c0 632d a5c0 a9ad 0541 b454 8e40
000002a0: 17ec f940 d1bd 4440 b263 4040 f75c 0440
000002b0: 1dfa f3c0 46c0 1341 22d8 bb3f 596f 4641
000002c0: 894a 00c1 c533 2ebf d73b 1e41 f8de 1741
000002d0: 5817 5cbf 61e0 0641 69b5 2340 32d0 fdc0
000002e0: c55d e840 a74d d1c0 ab2f 00c1 9d34 0d41
000002f0: dd50 22c1 2b04 8340 cdb9 28c1 7da4 f540
00000300: 897d 693f f45f f13e d626 d13f dea1 4dbf
00000310: 7e2d ef3e 74b1 163f 9f04 88bf 8258 e0be
00000320: 7fb5 93bf 7353 d3be 5205 42be e5c7 1abe
00000330: 4911 7a3f e749 aebf 642c 8bbe 1907 05c0
00000340: c16d 743f 32b0 0a3e a888 9dbf 1c39 9fbf
00000350: 7b3d 83bd 3fed 98bf 5f2e 99be 4a1c 973f
00000360: 6912 5fbf b8c7 443f 8d08 8f3f ad7c 9fbf
00000370: 4ad6 a53f 5226 a9be f6c8 b43f 39d2 82bf
00000380: 659f 783f b693 143f 3053 1e40 7a25 84bf
00000390: 350c 0c3f c635 303f 0a7b dcbf ae57 12bf
000003a0: e41e abbf ef07 b5be 0b08 cbbe de40 8cbe
000003b0: fd5a b43f 1933 f6bf fe06 c7be 15fe 37c0
000003c0: 9aac c23f 00b2 bd3c b657 f9bf 849d febf
000003d0: 3d01 d03d 6206 d7bf 5314 02bf fb65 c03f
000003e0: c847 abbf 8394 a33f 13e6 b73f 91e7 e7bf
000003f0: 3faa fc3f 18a5 3fbf f639 0440 ac4b cabf
