group_project/saved_data/attack_model_state_dict.pth (torch, 18015 bytes, 11 tensors)

net.0.weight f4 [64, 5]
0	0xc01aecae	-2.4206958
1	0x3f0525a5	0.52010566
2	0xbfc08cfc	-1.5043025
3	0x3eaecd66	0.34141082
4	0x3f17bf98	0.59276724
5	0x3f2d8f21	0.6779652
6	0x3edca87f	0.43097302
7	0x3f8cd4b8	1.1002417
8	0x3f308b6f	0.6896276
9	0x3f0ce67a	0.5503918
10	0xbfa88a8c	-1.3167281
11	0x3f07aeb1	0.5300093
12	0xbfb05402	-1.3775637
13	0xbe09324f	-0.13398097
14	0x3f20b24c	0.6277206
15	0x3f23ae77	0.6393809
16	0x3eb72226	0.3576824
17	0x3f1b5b47	0.60686153
18	0x3f3e3f8b	0.7431571
19	0x3f28c34b	0.65922993
20	0xbd203045	-0.039108533
21	0x3ee7a1df	0.45240685
22	0xbfc57edf	-1.5429343
23	0x3f6979ef	0.9120168
24	0x3f087c90	0.5331507
25	0xbe8bccdb	-0.2730473
26	0x3eef6b2a	0.46761447
27	0xbf916c4c	-1.1361175
28	0x3f84a089	1.0361491
29	0x3f0747a2	0.5284368
30	0x3f9c4b8c	1.2210555
31	0x3e90a2bd	0.2824916
32	0x3fb34af6	1.4007251
33	0x3efc5792	0.4928556
34	0x3e6e1fc7	0.2325431
35	0x40dd9271	6.924126
36	0xbf35ddd2	-0.71041596
37	0x40d7f85c	6.7490673
38	0xbf716031	-0.942874
39	0xc002c793	-2.043431
40	0xbee96190	-0.45582247
41	0x3e763c23	0.24046378
42	0xbeabbe66	-0.335437
43	0x3f76a183	0.963402
44	0x3ed0cee5	0.40782848
45	0xbf41e656	-0.7574209
46	0x3fb9a9dc	1.4504962
47	0xc000e109	-2.013735
48	0x3f10bddb	0.56539696
49	0x3f4850fb	0.78248566
50	0x3c82cba3	0.015966242
51	0x3dd675f6	0.10471718
52	0xbe51a1a4	-0.20471817
53	0x3f18cd8c	0.5968864
54	0xbdb78757	-0.08961361
55	0xbe73eea5	-0.23821504
56	0xbe9237bd	-0.2855815
57	0xbf136e8b	-0.5759055
58	0xbeb42c5c	-0.35190094
59	0xbeae2e2b	-0.34019598
60	0x3fa8ff75	1.3202959
61	0x3e087809	0.1332704
62	0x3f4379c0	0.7635765
63	0x3e95c0f8	0.29248786
64	0x3ebcfc65	0.36911312
65	0xbfc11403	-1.5084232
66	0x3fb9b7ec	1.4509254
67	0x3e4a01dc	0.19727272
68	0x3f8b24ca	1.0870602
69	0x3fab5d24	1.3387799
70	0xc0baa217	-5.8322864
71	0x3fc7a4af	1.5597132
72	0xc0b1cfac	-5.5566006
73	0x3f17fd16	0.59370553
74	0x401ee7a5	2.4828885
75	0xbe975415	-0.29556337
76	0xbe937826	-0.28802603
77	0xbeb5849c	-0.35452735
78	0xbea8e9d6	-0.32990903
79	0xbd4936d6	-0.04912456
80	0xc0c47230	-6.138939
81	0x3f8e7140	1.1128311
82	0xbfffea93	-1.9993461
83	0x3f58a792	0.8463069
84	0x3f8fb2bb	1.1226419
85	0xbed3400e	-0.41259807
86	0xbe957aa6	-0.29195136
87	0xbf1cbe5c	-0.61227965
88	0xbed7c3eb	-0.4214166
89	0xbf504a44	-0.8136332
90	0xbe132698	-0.14370191
91	0x3e49bf72	0.19701937
92	0xbf79de18	-0.97604513
93	0xbe8183df	-0.25295922
94	0xbd24dcaf	-0.040249523
95	0x3ebcde85	0.3688852
96	0x3f68125f	0.9065303
97	0x3f86d714	1.0534387
98	0x3f98292e	1.1887567
99	0x3f83ea7f	1.0305938
100	0xbec09558	-0.3761394
101	0x3f2e5e2d	0.6811245
102	0xbf4f207b	-0.80908936
103	0x3ee7bb75	0.45260206
104	0x3ed69b0f	0.41915175
105	0x402add4d	2.6697571
106	0xbf2e8a61	-0.681799
107	0x4003ae85	2.0575268
108	0xbec12f26	-0.37731284
109	0xbf916593	-1.1359123
110	0xbf3811d8	-0.7190223
111	0xbd2a4fe7	-0.041580107
112	0xbdaf7148	-0.085665286
113	0xbc8765b4	-0.016527988
114	0xbf4da886	-0.8033527
115	0xbe8a409d	-0.2700242
116	0x3ef335a0	0.4750185
117	0xbf3acfa6	-0.72973096
118	0xbd374b09	-0.044749293
119	0x3d97af22	0.07406451
120	0xc0b3dc4a	-5.6206408
121	0x3f2b07ee	0.66808975
122	0xc0491c5c	-3.142356
123	0x3f7cdbff	0.9877319
124	0x40007c12	2.0075727
125	0xbee04ee0	-0.43810177
126	0x3f76c8f6	0.9640039
127	0xbfc5b0d4	-1.5444589
128	0x3f47612c	0.7788265
129	0x3f487a07	0.783112
130	0xbec3dd63	-0.38254842
131	0x3f02a96a	0.51039755
132	0xbf8b913b	-1.0903696
133	0x3e84ee3f	0.25963017
134	0x3f8abc13	1.0838646
135	0xbe0ba430	-0.13636851
136	0xbf1ed7ce	-0.6204804
137	0xbf49d362	-0.7883817
138	0xbed270cf	-0.4110169
139	0xbe0ae06e	-0.13562176
140	0x3fbd8df5	1.4808947
141	0x3f29ec29	0.66375977
142	0x4003ec37	2.0612924
143	0x3e59363f	0.212121
144	0x3e7ac7e0	0.24490309
145	0x3f10b6f0	0.5652914
146	0x3f6a1cdd	0.9145029
147	0xbe0465d8	-0.12929475
148	0x3e93d946	0.28876704
149	0x3eea2f97	0.45739433
150	0xbe827f8f	-0.25487944
151	0x3f0d9a8a	0.5531393
152	0xbe827eab	-0.25487265
153	0x3e3f14c8	0.18660271
154	0x3f633da5	0.8876594
155	0xbffdbbdf	-1.9822959
156	0x3f784baa	0.96990454
157	0x3e325ba3	0.17417769
158	0x3f87fcaf	1.0623988
159	0x3faa6282	1.3311312
160	0x3f2b788b	0.6698081
161	0x3e9cd352	0.30629975
162	0x3f50c1c4	0.8154566
163	0x3f518fe9	0.81860214
164	0x3f194f6e	0.59886825
165	0x402e91ae	2.7276416
166	0xbd8d9535	-0.069132246
167	0x404305c5	3.0472271
168	0x3ecc0ac3	0.3985196
169	0xbec875d3	-0.39152393
170	0xbedee7cd	-0.43536225
171	0xbde0f44d	-0.10984097
172	0xbece6b00	-0.4031601
173	0xbead7959	-0.33881643
174	0xbf089011	-0.5334483
175	0xbe8c43e5	-0.2739555
176	0x3ec544f8	0.3852918
177	0xbe6f7b57	-0.23386894
178	0xbe2e42f0	-0.17017722
179	0xbec05a94	-0.37569106
180	0xbeb675f6	-0.35636872
181	0x3d443ebc	0.04791139
182	0x3d872447	0.06598716
183	0x3eece7bb	0.46270546
184	0x3f4a72a4	0.7908118
185	0xbc8eb37b	-0.017419567
186	0x3efeeba9	0.4978917
187	0xbfad6226	-1.3545578
188	0x3f6dda74	0.9291146
189	0x3f637cb2	0.88862145
190	0x40ec5d23	7.386369
191	0xbf8a16a6	-1.0788162
192	0x4054390a	3.3159814
193	0xbe97d09c	-0.29651344
194	0xbfd1bee9	-1.6386386
195	0xbecf963d	-0.4054431
196	0xbef1ae87	-0.47203466
197	0xbf2d99b0	-0.67812634
198	0xbf42356a	-0.75862753
199	0xbca259ee	-0.019818272
200	0xc08650ab	-4.197347
201	0x3f40f361	0.75371367
202	0xbfb70555	-1.4298502
203	0x3f828f2c	1.0199943
204	0x3fa2b854	1.2712502
205	0xbd051733	-0.032492828
206	0x3f45d47d	0.77277356
207	0xbf417759	-0.75572735
208	0x3f23520b	0.6379706
209	0x3f0e095c	0.5548303
210	0xbe7189fa	-0.2358779
211	0xbf21fa16	-0.63272226
212	0xbe09ef5b	-0.13470213
213	0xbed92866	-0.42413634
214	0xbf2b534d	-0.6692398
215	0xbe248be9	-0.16068996
216	0xbf179742	-0.59215176
217	0xbeaab8ea	-0.33344203
218	0xbf02485c	-0.5089166
219	0xbd83b756	-0.06431453
220	0x3d96bde8	0.073604405
221	0x3f8125cb	1.0089658
222	0xbe690496	-0.22755656
223	0x3ed04c51	0.40683225
224	0x3f1b16d1	0.6058169
225	0xbeead060	-0.45862103
226	0x3ebc92da	0.3683079
227	0xbfc8db69	-1.5691959
228	0x3f1b553b	0.60676926
229	0x3f9711bd	1.1802288
230	0xc0011769	-2.0170538
231	0x3f63eb56	0.8903097
232	0x3e574fee	0.21026585
233	0x3f40112e	0.75026214
234	0x3f805d36	1.0028446
235	0xc08e7db8	-4.4528465
236	0x3f844f38	1.0336676
237	0xbf6c7f48	-0.92381716
238	0x3f63a089	0.8891683
239	0x3fb917f0	1.446043
240	0x3e4eebf8	0.20207202
241	0x3e83465c	0.25639617
242	0x3e8c0198	0.27344966
243	0x3f13954a	0.5764967
244	0x3ed77988	0.42084908
245	0xbefc7b70	-0.49312925
246	0x3f17bf3f	0.59276193
247	0xbfb3a057	-1.4033307
248	0x3f653358	0.8953147
249	0x3e2b1f14	0.16711074
250	0xbe5a907f	-0.21344183
251	0xbed5cce5	-0.41757885
252	0xbf3d6c7a	-0.7399365
253	0xbeaf51e0	-0.34242153
254	0xbdde7123	-0.10861423
255	0xbf3177bd	-0.6932333

net.0.bias f4 [64]
0	0x3ef8b640	0.48576546
1	0x3f00ac62	0.50263035
2	0x3e728e40	0.23687077
3	0x3f2b150c	0.6682899
4	0x3e0a20ca	0.1348907
5	0x3e9c8e1c	0.3057717
6	0x3e822654	0.25419867
7	0x3df2c404	0.11853793
8	0x3ec3a33d	0.38210478
9	0x3f6fa29f	0.93607515
10	0x3f11d526	0.56965864
11	0xbe484e1e	-0.1956105
12	0x3ead3336	0.33828133
13	0x3f6edc3e	0.9330481
14	0x3e991e1c	0.29905784
15	0x3ed01d3b	0.406473
16	0x3ef2888c	0.47369802
17	0xbf1289d1	-0.5724154
18	0xbe0ea42e	-0.13929817
19	0x3ee4346d	0.44571248
20	0x3f2ff9df	0.6874065
21	0xbed1a7ac	-0.40948236
22	0xbeb23d31	-0.3481231
23	0xbdf73ff8	-0.12072748
24	0x3ee05ec3	0.43822297
25	0x3f25edf2	0.648162
26	0xbecdaee5	-0.40172496
27	0xbeb51c79	-0.35373285
28	0x3e8ff385	0.28115478
29	0x3f14d0be	0.58131015
30	0x3e94311d	0.2894372
31	0x3f798977	0.9747538
32	0x3f2e62dd	0.68119603
33	0x3f4c74b6	0.79865587
34	0xbf0eb505	-0.55744964
35	0xbec2a4c2	-0.38016325
36	0x3debfdaf	0.11522996
37	0x3ec5fe85	0.38670745
38	0xbdd06c56	-0.101769134
39	0xbf047785	-0.5174487
40	0x3e60bffa	0.21948233
41	0x3f2e38e9	0.6805559
42	0xbe1abb2a	-0.1511046
43	0xbf3146bc	-0.6924856
44	0x3e626b53	0.22111253
45	0x3efdd8b8	0.49579406
46	0x3f8e436e	1.1114328
47	0x3f9a1beb	1.203977
48	0x3e8b2a50	0.2718072
49	0x3e91dc03	0.28488168
50	0xbd3c4128	-0.045960575
51	0xbf3e333b	-0.7429692
52	0x3dd7fa62	0.105458036
53	0x3b931180	0.00448817
54	0xbca67300	-0.020318508
55	0x3f73e82c	0.9527614
56	0x3edd83dc	0.43264663
57	0x3e9a3177	0.30115864
58	0xbf2aa53d	-0.66658384
59	0x3e32cdff	0.17461394
60	0x3ddd4c4b	0.10805567
61	0x3e011460	0.12605429
62	0x3f100b65	0.56267387
63	0xbe76542e	-0.2405555

net.1.weight f4 [64]
0	0x3ed45e77	0.4147832
1	0x3f95b5d7	1.1696118
2	0x3f6f1cd9	0.93403393
3	0x3fa50c9a	1.2894471
4	0xbdec72b0	-0.115453124
5	0x3e2fbe49	0.17162432
6	0x3f90f2cd	1.1324097
7	0x40a7de7d	5.245909
8	0x3d9968a9	0.074906655
9	0xbf037e00	-0.51364136
10	0x3edeac96	0.43491048
11	0x3ebb8ac8	0.3662932
12	0x3f1228d5	0.57093555
13	0x40036b22	2.0534139
14	0x40787dc8	3.882677
15	0x3eab64ac	0.33475244
16	0x404ba54c	3.181964
17	0x3d143dde	0.036191814
18	0x3fac41ff	1.345764
19	0x3fe1db3c	1.764503
20	0x3d42e879	0.047584984
21	0x40535e0f	3.302616
22	0x3eb4df05	0.353264
23	0x3fbdc586	1.4825904
24	0x4048be52	3.1366162
25	0xbf14803c	-0.5800817
26	0x3ebd911f	0.3702478
27	0x3ec1cd86	0.37852114
28	0x3fb8da0c	1.4441543
29	0xbead3ffa	-0.33837873
30	0xbd840eda	-0.06448145
31	0x3fd59240	1.6685257
32	0x3fab5056	1.3383892
33	0x4006253d	2.0960228
34	0x3ec8c5cb	0.39213404
35	0x3fe518a5	1.7898146
36	0x3ebf91ea	0.3741601
37	0xbd70bbd3	-0.058772873
38	0x4045375d	3.081504
39	0x3e25883e	0.16165254
40	0x401331f1	2.2999232
41	0xbd9c1ec9	-0.07623059
42	0x3eba1d71	0.36350587
43	0x3e9fbcff	0.3119888
44	0xbf693fb9	-0.9111286
45	0xbea779a9	-0.32710007
46	0x3fee3517	1.8609952
47	0x4015d2b7	2.340986
48	0x3e7b46cb	0.24538724
49	0x3e1d1034	0.15338212
50	0x3ec31233	0.38099822
51	0xbe96cc8c	-0.29452932
52	0x3f90b691	1.1305715
53	0x3f072b5a	0.52800524
54	0x3fb5a6a4	1.419148
55	0x3f9ca4b6	1.2237766
56	0x4013753f	2.3040311
57	0x3e371877	0.17880426
58	0x3eba7bd4	0.36422598
59	0x4000faeb	2.0153148
60	0x3f52e177	0.8237528
61	0x3f198ca6	0.5998024
62	0x40a5e880	5.1846313
63	0x3e9135cb	0.28361353

net.1.bias f4 [64]
0	0xbe58fa82	-0.21189311
1	0x3e2e7c08	0.17039502
2	0xbf195bd9	-0.59905773
3	0x3ede20be	0.43384355
4	0xbed5abc9	-0.41732624
5	0xbef07058	-0.4696071
6	0xbd3dde0a	-0.04635433
7	0xbe82c32c	-0.2553953
8	0xbeba5ee1	-0.36400512
9	0xbf436963	-0.7633268
10	0xbd940410	-0.07227337
11	0xbfd1ce04	-1.6390996
12	0xbee0f20a	-0.4393466
13	0x3f3515af	0.7073621
14	0x3f7b652e	0.9820126
15	0xbf1df329	-0.6169916
16	0x3f59df94	0.8510678
17	0xbf121b7c	-0.5707319
18	0xbfb7bc2d	-1.4354302
19	0x3f2a93e0	0.6663189
20	0xbee48062	-0.44629198
21	0x3c677a06	0.014128214
22	0xbef4d4ca	-0.47818595
23	0xbf3d3ef9	-0.73924214
24	0x3f264d21	0.6496144
25	0xbfa3865b	-1.2775377
26	0xbf8fea08	-1.1243296
27	0xbf13630f	-0.57573026
28	0x3ec49c48	0.38400483
29	0x3dc45b67	0.09587746
30	0xbf2a282b	-0.6646754
31	0x3f82e5a1	1.0226327
32	0x3f0ade1a	0.5424515
33	0x3dd248c0	0.10267782
34	0xbf1b813e	-0.6074408
35	0xbf38bbda	-0.7216164
36	0xbdefaf93	-0.1170341
37	0xbecbad18	-0.39780498
38	0x3dc0cb33	0.09413757
39	0xbf11fb61	-0.570242
40	0x3f084f47	0.5324597
41	0xbf01c257	-0.50687164
42	0xbf0f0f5d	-0.5588282
43	0xbf0e9f0a	-0.55711424
44	0xbf84d330	-1.0376949
45	0xbedbe721	-0.42949775
46	0x3f14e53c	0.58162284
47	0x3f6fa1ac	0.93606067
48	0xbed68640	-0.418993
49	0xbebd0056	-0.3691432
50	0xbefe7f87	-0.4970667
51	0xbf0a81fe	-0.541046
52	0x3e999e28	0.30003476
53	0xbfecf2c9	-1.8511592
54	0xbf88e6b1	-1.0695401
55	0x3df3c04e	0.119019136
56	0x3f4e68cf	0.80628675
57	0xbe2f4e08	-0.1711961
58	0xbf1a7054	-0.6032765
59	0x3dcf5c79	0.1012506
60	0xbf63893f	-0.88881296
61	0xbfbe85c9	-1.4884578
62	0x3e911ec4	0.28343785
63	0xbe1b3358	-0.15156305

net.4.weight f4 [32, 64]
0	0xbf1ac07b	-0.6044995
1	0x3f6b5797	0.91930526
2	0x3f3b0c26	0.7306541
3	0x3f3147e1	0.69250304
4	0xbe74dbac	-0.23911923
5	0xbedd3862	-0.4320708
6	0x3f4e3c2d	0.8056057
7	0xc029cfe8	-2.6533146
8	0xbefabc9a	-0.48972017
9	0xbe3ad027	-0.18243466
10	0xbe57793a	-0.21042338
11	0xbf687669	-0.9080568
12	0x3f16289c	0.58655715
13	0x3f77c54d	0.9678543
14	0x4042c482	3.043244
15	0x3e40d0ba	0.18829623
16	0x3fe95d78	1.8231649
17	0x3f0a787b	0.5409009
18	0xbf50746e	-0.8142766
19	0x3f5e562b	0.8685023
20	0xbf0ba685	-0.54550964
21	0xbf1e4249	-0.61819893
22	0x3f12bc45	0.57318527
23	0xbf21d53d	-0.63216
24	0x3fbdce44	1.4828572
25	0xbf0f4d00	-0.5597687
26	0x3d87ef15	0.06637398
27	0x3efbe634	0.4919907
28	0x3f2f79cf	0.6854524
29	0xbecf8d19	-0.40537336
30	0xbf28b92d	-0.65907556
31	0x3f5d28ed	0.8639057
32	0x3f6ecaff	0.932785
33	0xbe94a7d7	-0.29034302
34	0x3f17e750	0.5933733
35	0xbf84a4ce	-1.0362794
36	0x3e5eb5e9	0.2174908
37	0xbeeff7d0	-0.46868753
38	0x3edd0293	0.43166026
39	0x3f03a2ef	0.5142049
40	0x3f822743	1.0168232
41	0xbf4fd3ad	-0.81182367
42	0x3ee872fb	0.45400223
43	0x3f14cb85	0.58123046
44	0xbf1c5a27	-0.6107506
45	0x3eb4a188	0.3527949
46	0x3f82cf43	1.0219501
47	0x3f805615	1.002627
48	0xbf29c384	-0.6631396
49	0xbe8edc25	-0.27902332
50	0x3f0c6d84	0.5485461
51	0xbe4f0da1	-0.20220043
52	0xbf8d385f	-1.1032828
53	0xbf1d2271	-0.6138068
54	0xbf9cdf95	-1.2255732
55	0x3f66236c	0.898978
56	0x400ee02a	2.232432
57	0xbed378fa	-0.41303235
58	0x3eefa0e1	0.46802428
59	0x3f37ac3a	0.7174717
60	0xbfbf354d	-1.4938141
61	0xbfe2e20c	-1.7725234
62	0xc007122f	-2.1104848
63	0xbfb29cd3	-1.3954109
64	0xbd4a36d9	-0.049368713
65	0x3f110be0	0.56658745
66	0x3f0c3ee5	0.5478347
67	0x3f2a4d9f	0.6652469
68	0xbf834d6d	-1.0258003
69	0xbf46fb20	-0.77726936
70	0x3f009e18	0.5024123
71	0x404ac971	3.168545
72	0xbf231c4c	-0.6371505
73	0xbf2e88d3	-0.6817753
74	0xbda35f83	-0.07977202
75	0xbeadda16	-0.3395545
76	0x3f38bc49	0.721623
77	0x3dd08402	0.101814285
78	0xbfbcb3a0	-1.4742317
79	0x3eed3e01	0.46336368
80	0x3eb0eea1	0.3455706
81	0x3f205eb8	0.6264453
82	0xbf4904ce	-0.78522956
83	0x3ecee6a7	0.4041035
84	0xbf2d945c	-0.67804503
85	0x40044e27	2.06727
86	0x3f352b17	0.70768875
87	0xbf0a56bd	-0.540386
88	0xbef4ecfb	-0.47837052
89	0xbf32aba0	-0.6979313
90	0xbf618969	-0.88100296
91	0x3f0ed097	0.5578703
92	0x3cfc9bf6	0.030836087
93	0xbe08e219	-0.133675
94	0xbf213eb9	-0.6298633
95	0x3ed907e4	0.42388833
96	0x3e803750	0.250422
97	0x3f676a2e	0.9039639
98	0x3f3a86da	0.7286202
99	0xbe2c5b91	-0.16831805
100	0xbe315b80	-0.1732006
101	0xbf40ebc5	-0.75359756
102	0x3fa6b2ec	1.3023353
103	0x3f1db2cf	0.61600965
104	0xbe47afad	-0.19500609
105	0xbf2863fb	-0.6577756
106	0x3f3654ea	0.7122332
107	0x3f04f61b	0.5193803
108	0xbf083b6d	-0.53215677
109	0x3e23d8a2	0.16000608
110	0x3e84ecf3	0.25962028
111	0xbee35d39	-0.4440706
112	0x3e08de24	0.1336599
113	0x3e900368	0.281276
114	0x3f1f1809	0.6214605
115	0x3f1d7d68	0.6151948
116	0x3f4bb8a0	0.7957859
117	0xbbc07150	-0.005872883
118	0xbd28e841	-0.04123712
119	0x3dbb1738	0.09135288
120	0xbf4dacc6	-0.80341756
121	0x3e891974	0.26777232
122	0x3f1854f1	0.5950461
123	0x3f6b2c66	0.9186462
124	0xbf0db3ef	-0.5535268
125	0x3e87b7c6	0.26507396
126	0x401ca385	2.4474804
127	0x3eb48678	0.35258842
128	0x3e5d490d	0.21609898
129	0xbe8bfc23	-0.27340803
130	0x3f46c184	0.7763903
131	0xbdf5d4d3	-0.120034836
132	0x3e995ca5	0.29953495
133	0xbe507b9d	-0.20359655
134	0xbd31df0e	-0.043425612
135	0xbf7cc588	-0.9873891
136	0xbefc717a	-0.49305326
137	0xbeaa0881	-0.33209613
138	0xbef7aa63	-0.48372182
139	0x3e863bc9	0.26217487
140	0xbe8fdb27	-0.28096887
141	0xbe67c16b	-0.22632377
142	0x3da12bc0	0.07869673
143	0x3f3bbb1a	0.7333237
144	0x3d9651d8	0.07339829
145	0x3f5a98d0	0.85389423
146	0x3e9cf9a8	0.30659223
147	0x3d145d5a	0.03622184
148	0x3eacf1e4	0.33778298
149	0xbebed421	-0.37271217
150	0x3f053e6f	0.5204839
151	0x3e27ed32	0.16399077
152	0xbe17ca21	-0.148232
153	0x3e8441bc	0.258314
154	0x3f669a25	0.90078956
155	0x3e9f7cfb	0.3115004
156	0xbd142d38	-0.036175936
157	0xbe2831bd	-0.16425224
158	0x3d5a58cc	0.05330734
159	0x3d36ed02	0.044659622
160	0xbe5b12cf	-0.21393894
161	0x3efa2765	0.4885818
162	0x3f3251a0	0.696558
163	0x3f000c4f	0.5001878
164	0xbeff712f	-0.4989104
165	0x3e9226cd	0.28545228
166	0xbce1dd40	-0.02757132
167	0x3f5b578c	0.8568046
168	0xbe1668b6	-0.14688382
169	0x3db140d5	0.08654944
170	0x3eedb809	0.4642947
171	0x3ee5c598	0.44877315
172	0xbf3a3d3d	-0.7274969
173	0xbea99fa5	-0.33129612
174	0xbe682e71	-0.22673966
175	0xbe75da06	-0.2400895
176	0xbf33ec8a	-0.70282805
177	0xbf1049ed	-0.563628
178	0x3d28d64f	0.041220006
179	0x3e557507	0.20845424
180	0xbed922df	-0.42409417
181	0x3e877eed	0.26464024
182	0x3e9d2834	0.30694735
183	0xbdf456b7	-0.11930602
184	0xbcfd94cf	-0.030954747
185	0xbf0667ed	-0.5250233
186	0x3f1a36fb	0.60240144
187	0xbec2e0ff	-0.38062283
188	0x3dff0b1a	0.12453289
189	0x3e774187	0.2414609
190	0xbf8bbac9	-1.0916377
191	0xbe5b1adc	-0.21396965
192	0xbf0c0188	-0.54689837
193	0x3efca4d4	0.49344504
194	0x3f122e86	0.5710224
195	0x3f48bbfd	0.7841185
196	0xbf04e334	-0.51909184
197	0xbee47bfa	-0.44625837
198	0x3ee42d84	0.44565976
199	0x3fc3d0ce	1.5298097
200	0xbf2bab7d	-0.67058545
201	0xbefb33ee	-0.49063057
202	0x3e7cad31	0.24675442
203	0xbf253d00	-0.64546204
204	0x3f08498d	0.5323723
205	0x3f166a9d	0.5875643
206	0xbe6a81e7	-0.22901116
207	0x3f338277	0.7012095
208	0x3f0dc3e1	0.5537701
209	0x3f233025	0.6374534
210	0xbf480deb	-0.7814624
211	0x3f3a8429	0.7285791
212	0xbf010c68	-0.50409555
213	0x3f2d7006	0.6774906
214	0x3f228b67	0.6349396
215	0xbf17da0e	-0.593171
216	0x3eac405a	0.33642846
217	0xbf43dbeb	-0.76507443
218	0x3f09b378	0.5378947
219	0x3f02c7d7	0.5108618
220	0x3f8bd79c	1.0925174
221	0x3e27f04a	0.16400257
222	0xbf04bb16	-0.5184797
223	0x3ee8ebd0	0.4549241
224	0x3f45a3bd	0.7720297
225	0x3f49a7c9	0.78771645
226	0x3f092230	0.5356779
227	0xbefc0cb8	-0.49228454
228	0xbe6993a8	-0.22810233
229	0xbf1f0306	-0.6211399
230	0x3f4146a0	0.7549839
231	0x3f05e41f	0.5230121
232	0x3f0bae91	0.5456324
233	0xbf1394c1	-0.57648855
234	0x3f09e78c	0.5386894
235	0x3f0128cd	0.5045288
236	0xbf4cb1df	-0.7995891
237	0x3eff054c	0.4980873
238	0x3f1f266a	0.6216799
239	0x3f28685f	0.6578426
240	0xbf09916c	-0.5373752
241	0xbf634d5c	-0.88789916
242	0x3f34e4d8	0.7066169
243	0xbd99d008	-0.07510382
244	0xbf5b971f	-0.8577747
245	0xbf22649e	-0.6343478
246	0xbf1bae48	-0.6081281
247	0x3f11dddc	0.56979156
248	0x3ec89029	0.39172485
249	0x3ca64c70	0.02030012
250	0x3f1c9dbe	0.61178195
251	0x3f37af16	0.71751535
252	0xbf338bc0	-0.70135117
253	0xbf6ce4ee	-0.9253682
254	0x4025c652	2.5902295
255	0x3f339d4f	0.7016191

net.4.bias f4 [32]
0	0x3f56d65e	0.8392085
1	0x3f211423	0.6292135
2	0xbe84ae4c	-0.25914228
3	0x3f3b4335	0.73149425
4	0x3f25122b	0.6448085
5	0xbf0149f2	-0.50503457
6	0xbf1d8864	-0.6153624
7	0xbee5095b	-0.447337
8	0xbf403c78	-0.7509227
9	0x3f132f92	0.5749446
10	0x3f3ab6b2	0.7293502
11	0x3f76ed4b	0.9645583
12	0xbf014e36	-0.50509965
13	0x3f239442	0.638981
14	0x3f338175	0.7011941
15	0xbeffc5e5	-0.4995567
16	0x3f7066b9	0.9390674
17	0xbf3bdb4c	-0.73381495
18	0x3f3b6d08	0.73213243
19	0xbf1db621	-0.6160603
20	0x3f16e005	0.58935577
21	0xbf3630fb	-0.7116849
22	0xbf0ecb00	-0.55778503
23	0x3f396ea1	0.7243443
24	0x3ef8028c	0.48439443
25	0xbf0c7ab1	-0.5487471
26	0xbf0c2e44	-0.54758096
27	0x3e7de761	0.24795295
28	0xbf1508f8	-0.5821681
29	0x3efe1e74	0.4963261
30	0xbf8d3915	-1.1033045
31	0x3e8e8204	0.2783357

net.5.weight f4 [32]
0	0xbe55a5bc	-0.20864004
1	0x3fa08546	1.2540672
2	0x3ea54174	0.322765
3	0x3f8a10a3	1.0786327
4	0x3ed7a7b3	0.42120132
5	0x3f1d8084	0.61524224
6	0x3f1f8669	0.6231447
7	0x3f9e6c49	1.2376796
8	0xbd5b742a	-0.05357758
9	0x3e7a8f9a	0.24468842
10	0x3ea6d1ce	0.32581943
11	0x3e5f2f6b	0.21795432
12	0x3e8880f9	0.26660898
13	0xbed41089	-0.41418865
14	0x3f847b39	1.0350105
15	0x3dca5aab	0.09880575
16	0xbd1c00c1	-0.038086656
17	0x3e22ceb5	0.15899165
18	0x3d93adfb	0.072109185
19	0x3ec7dacd	0.3903412
20	0x3e6446c8	0.22292626
21	0x3ee9817a	0.45606595
22	0x3ee2faec	0.44332063
23	0x3f96f887	1.1794595
24	0x3f068040	0.52539444
25	0xbe46b643	-0.19405465
26	0x3f1cc385	0.6123584
27	0x3fb3002b	1.3984426
28	0x3e9a7add	0.30171862
29	0x3e461863	0.1934524
30	0x3da4d355	0.08048121
31	0xbe933e4a	-0.2875846

net.5.bias f4 [32]
0	0xbf6cc6aa	-0.9249064
1	0xbeae6f08	-0.34069085
2	0xbdda4b3c	-0.10658881
3	0xbe9415a8	-0.28922772
4	0xbeb8718d	-0.36024132
5	0xbefbde53	-0.49193057
6	0xbe7b5d88	-0.24547398
7	0xbf804924	-1.0022321
8	0xbf3637e1	-0.71179014
9	0xbf3b89b9	-0.73257023
10	0xbf141447	-0.5784344
11	0xbf1c8009	-0.61132866
12	0xbe950007	-0.29101583
13	0xbf3594dd	-0.7093027
14	0xbdf393f6	-0.11893456
15	0xbebe86df	-0.37212273
16	0xbed8cd4b	-0.42344126
17	0xbdf7130b	-0.12064179
18	0xbf2cfdbb	-0.6757466
19	0x3e28b2bc	0.16474432
20	0xbeafabc5	-0.34310737
21	0x3e197c92	0.14988926
22	0xbf04e5be	-0.5191306
23	0xbef4ad80	-0.4778862
24	0xbf15e705	-0.5855563
25	0xbe6517fc	-0.2237243
26	0x3ebc362b	0.36760077
27	0xbdd00213	-0.101566456
28	0xbd157549	-0.036488805
29	0xbf0ee03b	-0.558109
30	0xbf37513a	-0.71608317
31	0xbe3333ee	-0.17500278

net.8.weight f4 [16, 32]
0	0xbd8f5859	-0.06999273
1	0xbf0540be	-0.52051914
2	0xbf04eb29	-0.51921326
3	0xbf5ff260	-0.8747921
4	0xbdbf51e6	-0.09341793
5	0x3fb2dec9	1.3974239
6	0x3fb8bbd0	1.4432316
7	0x3af6fa9c	0.0018842998
8	0x3fab405a	1.3379014
9	0x3e3d9114	0.18512374
10	0xbe87fda7	-0.2656071
11	0xbdc37aae	-0.09544884
12	0x3f819d7d	1.0126187
13	0x3d18963b	0.037252646
14	0xbf60e1fd	-0.8784483
15	0x3fbb6a26	1.4641769
16	0x3e5c6440	0.21522617
17	0x3fbeb7a2	1.489979
18	0xbdf1f2ba	-0.118138745
19	0x3f04181f	0.51599306
20	0xbf3ee40e	-0.74566734
21	0x3f6d1103	0.9260408
22	0x3fdd7499	1.7301208
23	0xbfa2f650	-1.2731419
24	0xbeea825e	-0.45802587
25	0x3f9bf1d0	1.218317
26	0x3ee20eec	0.4415201
27	0xbecab64b	-0.39592203
28	0xbe2b2924	-0.16714913
29	0x3fb39a80	1.4031525
30	0xbf32f683	-0.699074
31	0xbf13d1fc	-0.57742286
32	0x3f1e1074	0.61743855
33	0xbe732b12	-0.23746899
34	0x3dd78a8c	0.105244726
35	0xbf3be423	-0.73394984
36	0xbe6eb70e	-0.23312017
37	0xbeb88ad2	-0.36043411
38	0xbf766b87	-0.96257824
39	0xbf15d066	-0.58521116
40	0x3f996c27	1.198613
41	0x3f22c7ca	0.63586104
42	0xbe87778c	-0.26458395
43	0x3e221bf9	0.15830983
44	0xbf0d7910	-0.5526285
45	0xbe0feb59	-0.14054622
46	0xbf01427a	-0.5049206
47	0xbe0dd995	-0.13852532
48	0x3ebb7394	0.36611617
49	0xbf07c509	-0.53035027
50	0xbf501e76	-0.8129648
51	0x3eeb2fad	0.4593481
52	0xbe209f21	-0.15685703
53	0x3f68963a	0.9085423
54	0x3e21586f	0.15756391
55	0xbf1005aa	-0.5625864
56	0xbf1793a0	-0.5920963
57	0xbef48f1e	-0.4776544
58	0xbf229f69	-0.6352449
59	0x3eaf67d2	0.34258896
60	0x3ef868da	0.48517495
61	0xbead0079	-0.33789423
62	0xbf9d764d	-1.2301728
63	0x3f1c514f	0.6106157
64	0xbe0edcad	-0.13951369
65	0xbf82337a	-1.0171959
66	0xbf1b63e4	-0.60699296
67	0xbe92cd2b	-0.28672156
68	0x3e9f8314	0.31154692
69	0xbf3e25d7	-0.7427649
70	0xbf8b42e3	-1.0879787
71	0xbec220e5	-0.37915722
72	0x3ff5b657	1.9196271
73	0x3ee25032	0.4420181
74	0xbe40ba28	-0.18821013
75	0xbe76050c	-0.24025363
76	0xbf1bd053	-0.6086475
77	0xbc7b1a8d	-0.015326154
78	0xbf289a5d	-0.6586054
79	0xbece2c26	-0.40268058
80	0xbe07429f	-0.13209008
81	0xbee153a6	-0.4400913
82	0xbf2af19f	-0.66774935
83	0x3f401440	0.750309
84	0xbead59a5	-0.33857456
85	0x3f4243d0	0.75884724
86	0x3e7cc4a0	0.24684381
87	0xbeea8c67	-0.45810243
88	0xbeb90e06	-0.36143512
89	0xbed69a04	-0.4191438
90	0xbeed175c	-0.46306884
91	0x3f56a45c	0.8384454
92	0xbee02389	-0.4377711
93	0x3ee7a888	0.45245767
94	0x3eee699a	0.46564943
95	0x3f0d748e	0.55255973
96	0xbe73ed6c	-0.23821038
97	0xbf02a8fb	-0.51039094
98	0xbf0e2b37	-0.5553469
99	0xbed5df84	-0.4177209
100	0x3c147ba9	0.009062686
101	0x3edea514	0.4348532
102	0x3db2702a	0.087128
103	0x3d9915d0	0.074748635
104	0x3f1c0edd	0.6096018
105	0x3d56a1b9	0.052400324
106	0x3e939a73	0.28828773
107	0xbe62a07f	-0.22131537
108	0x3eae4f29	0.3404477
109	0xbe4c9c66	-0.19981536
110	0xbeffd6d2	-0.49968582
111	0xbf42d3e1	-0.7610455
112	0xbf049b57	-0.5179953
113	0xbd3967ac	-0.045264885
114	0xbedb98c0	-0.42889977
115	0x3f4c89c2	0.798977
116	0xbdf8aabc	-0.1214194
117	0x3eae31c9	0.34022358
118	0x3e4538eb	0.19259994
119	0xbf4106ae	-0.7540082
120	0xbef51252	-0.4786554
121	0x3bdddd57	0.0067707705
122	0xbe5aa5c2	-0.21352294
123	0xbf639236	-0.88894975
124	0x3f699ff6	0.91259706
125	0xbf0222b5	-0.5083421
126	0xbeae6a63	-0.34065542
127	0x3e39454a	0.18092838
128	0xbf3ed7cf	-0.7454805
129	0xbeaab6db	-0.33342633
130	0xbec6455a	-0.38724786
131	0xbe74c187	-0.2390195
132	0xbf11fe24	-0.5702841
133	0xbee8fa19	-0.4550331
134	0xbef110e3	-0.47083196
135	0xbf0432e8	-0.51640177
136	0x3f570d67	0.84004825
137	0xbf254e60	-0.64572716
138	0xbec469ce	-0.38361973
139	0xbee622c3	-0.44948396
140	0xbefc40b1	-0.49268106
141	0xbf1ed17b	-0.6203839
142	0xbf25fd41	-0.6483956
143	0xbef2e017	-0.47436592
144	0xbe7f4a5e	-0.24930713
145	0xbee20fa0	-0.44152546
146	0xbf1aced2	-0.6047183
147	0x3ef34337	0.47512218
148	0xbf1fb769	-0.62389237
149	0x3f3420d4	0.7036259
150	0xbf0c0549	-0.54695565
151	0xbf01b5b3	-0.50667876
152	0xbf225c05	-0.6342166
153	0xbf271f60	-0.6528225
154	0xbee9f262	-0.45692736
155	0x3f46d828	0.7767358
156	0xbf092900	-0.53578186
157	0xbec58f51	-0.38585904
158	0x3f82e25e	1.0225332
159	0x3f0ff0ab	0.56226605
160	0x3e49f312	0.1972163
161	0xbe2cab4b	-0.16862218
162	0x3db9c963	0.090716146
163	0xbec3180d	-0.38104287
164	0x3ef2391f	0.47309205
165	0xbeea7b39	-0.45797136
166	0xbeac22b5	-0.3362023
167	0xbec4c9bf	-0.3843517
168	0x3f4149e5	0.7550338
169	0xbe1910d5	-0.14947827
170	0xbe2be0c6	-0.16784963
171	0x3d3c056f	0.04590362
172	0xbef1689b	-0.4715012
173	0xbe35f721	-0.17770053
174	0xbf0c2a25	-0.5475181
175	0xbec03ace	-0.37544864
176	0x3e05ed63	0.13078837
177	0xbf07563d	-0.52865964
178	0xbe81b1df	-0.25331017
179	0x3ef96aa9	0.48714188
180	0xbdfc03ec	-0.123054355
181	0x3ebadd79	0.36497095
182	0xbe369c50	-0.17833066
183	0xbf293a2f	-0.66104406
184	0xbf2b8627	-0.67001575
185	0xbeef9073	-0.46789894
186	0xbf2614bf	-0.64875406
187	0x3e964f2d	0.2935728
188	0xbdf517df	-0.11967444
189	0xbf12af11	-0.5729838
190	0xbee1c907	-0.44098684
191	0x3f03d31f	0.5149402
192	0x3e806ea0	0.250844
193	0xbe361fc6	-0.17785558
194	0x3e870597	0.26371452
195	0xbe35505c	-0.17706436
196	0xbda9a142	-0.082827106
197	0x3f0ccfab	0.55004376
198	0xbdc58595	-0.096446194
199	0x3e32d34b	0.17463414
200	0x3e6092c4	0.21930987
201	0x3e19d99d	0.15024419
202	0xbef65fb2	-0.48119885
203	0x3e181450	0.14851499
204	0x3f4bf765	0.7967437
205	0x3d91dbe6	0.071220204
206	0xbe2d826f	-0.16944288
207	0x3e092e61	0.13396598
208	0xbe178a30	-0.14798808
209	0x3f2335cc	0.6375396
210	0xbd77f53e	-0.060536616
211	0xbe50a083	-0.2037373
212	0xbdff6cdc	-0.12471935
213	0x3e2a1f65	0.16613539
214	0x3e42fe1b	0.19042246
215	0xbe2a2112	-0.16614178
216	0xbd015926	-0.03157916
217	0x3ed743ad	0.4204382
218	0x3f186dd6	0.59542596
219	0xbd781e4f	-0.06057578
220	0x3f98c83a	1.1936104
221	0x3d2396c5	0.039938707
222	0xbe7c9317	-0.24665485
223	0x3db7f1bd	0.08981655
224	0xbdeeee0d	-0.11666498
225	0xbeab499a	-0.3345459
226	0xbe2e9a27	-0.17050992
227	0xbd3051b0	-0.043046653
228	0x3e86b867	0.26312563
229	0xbeae81bd	-0.34083357
230	0x3dd67bcb	0.104728304
231	0xbefc30d2	-0.49255997
232	0x3facad05	1.3490301
233	0xbded09b3	-0.115741156
234	0x3e4dc68e	0.20095274
235	0x3df68de7	0.120387845
236	0xbef06b6f	-0.46956965
237	0x3df9db12	0.121999875
238	0xbf1d5423	-0.6145651
239	0x3e340e35	0.17583545
240	0x3ec649f0	0.38728285
241	0xbf109b8d	-0.5648735
242	0xbd3e90d0	-0.046524823
243	0x3f2a56b6	0.6653856
244	0xbd352564	-0.04422511
245	0x3ec75a8d	0.38936272
246	0x3df7f880	0.121079445
247	0xbf094cb2	-0.5363265
248	0xbef7adf7	-0.48374912
249	0xbf1acdf0	-0.60470486
250	0xbee9afbc	-0.45641887
251	0xbf256d9e	-0.6462039
252	0x3fa3e51c	1.2804294
253	0xbee2babf	-0.442831
254	0x3f140545	0.5782054
255	0x3f0f4049	0.55957466

net.8.bias f4 [16]
0	0xbf9ea6c9	-1.2394649
1	0xbf95aaf8	-1.16928
2	0xbf222d9e	-0.63350856
3	0xbf3d5dfd	-0.7397154
4	0xbf274611	-0.6534129
5	0xbf6b2e71	-0.9186774
6	0xbe537788	-0.20651066
7	0xbf9347d4	-1.1506295
8	0xbfd87c1e	-1.6912878
9	0xbf7cb592	-0.98714554
10	0xbf375e19	-0.71627957
11	0xbf39da34	-0.72598577
12	0x3f483b88	0.7821584
13	0x3f9f2f76	1.2436359
14	0xbfb1002b	-1.3828176
15	0xbf597e64	-0.8495848

net.10.weight f4 [1, 16]
0	0x3ebac513	0.3647848
1	0x3e54dee9	0.20788158
2	0x3d864e59	0.065579124
3	0x3e73f499	0.23823775
4	0xbd31f915	-0.043450434
5	0x3df8958e	0.121379
6	0x3db3af0a	0.087736204
7	0x3e257ff2	0.16162089
8	0x3ec1df67	0.37865755
9	0xbd9d885b	-0.07692023
10	0x3df255d2	0.11832775
11	0x3d7fb076	0.062424146
12	0xbcacd67e	-0.021098372
13	0xbe569a9e	-0.2095742
14	0x3e1b79c3	0.15183167
15	0x38fdba81	0.00012098719
