group_project/saved_data/attack_model_state_dict.pth (torch, 18015 bytes, 11 tensors)

net.0.weight f4 [64, 5]
00000000: aa6c aabf 034e 333f 4f54 f6bf 9d66 4f3f
00000010: 668b ac3f 8570 0d3f 8942 f73e 2e03 cf3c
00000020: 83a4 5fbe 7ceb e9bd 5f45 49bf 2fa1 6c3f
00000030: d721 96bd 7fd5 013f 1706 273f 639e 903e
00000040: 5241 083f aabd 6fbc fb31 7e3f ab71 213f
00000050: 18f6 b23f b37c ab3e f47a 1ebd 20b7 273f
00000060: e9e6 153f ed90 a93e 3d43 c53e 87ee 68bd
00000070: c7aa b0be 7b5c 83bd b43d 2f3e d5ff 7b3f
00000080: 8427 3bbe f447 e83e b070 7c3e d3de a0be
00000090: f616 7f3f 341d b9bf ab24 963f fdab a53f
000000a0: 3402 cbbf 8858 963e 5274 dabf 1360 c03f
000000b0: 41b8 ba3f 7b35 243e 15c7 783e 17cb 943e
000000c0: 23f1 1e3f dccf 4f3f a0e9 4bc0 fb58 353f
000000d0: 2b19 9dc0 2c25 2d3f d079 b33f 3db7 9a3e
000000e0: c1c5 1c3e 616c 60be 9610 3f3e 966c fa3e
000000f0: 799a 06bf 29a8 403e d496 c0be 38b6 343f
00000100: f991 3b3f 9a1f 2fc0 9e42 4a3f 362a 3bc0
00000110: 1a63 ff3e 229e b33f 9f9e 19bf 4adf bc3e
00000120: f70a 28bf 4947 0e3f c1d1 7d3f cc9a eebf
00000130: ab28 c13f 8203 95bf 9baf 103f a3d1 893f
00000140: 3aea 87bc c66a 91bc 1d1e 30be e38f 8a3e
00000150: c08d 113f 6532 59bd 51ab 273f 3c93 bdbd
00000160: 8f1a c13e 0aea 413f 25a1 b5bf 447d 9b3f
00000170: c90b 54be 88cb 323f 74bd 9a3f 2640 b43e
00000180: 9abd 8d3f 73ac b2be 01a7 3a3f 2de4 853f
00000190: bbe9 1c3f b5bb 723f 4855 4e3f 0025 813e
000001a0: 9fd2 773e fb24 823e 9e34 943f 38bb 473f
000001b0: e369 dc3d c21c eb3e 08cc f13f e146 ab3e
000001c0: 9751 4f3f 71f9 8dbd 4ea5 af3e 20fa bdbf
000001d0: 8d44 603f a011 f7bf 9322 c03e 5d3f 553f
000001e0: 0897 2340 085d f23e ae08 c53f a2b5 2fbf
000001f0: 602d bd3d 02a9 51c0 95a6 083f e14b 7fc0
00000200: 1d13 6ebe 29c1 983f 786f 36bf 447e 553f
00000210: 921d eabf 99f8 7f3f fa93 bb3f e8a9 a93f
00000220: ac98 163f 61aa 6040 d8ac 423f 3a0d 48be
00000230: d51c 1440 f8a8 4e3e 5405 1d40 9c10 673d
00000240: 40f1 88bf f251 8f3f e695 193f 8561 823f
00000250: ccd0 d6bc 1b59 7e3d 295b c93f 26d4 1c3f
00000260: 0cb2 993c 33bf 6f3e 0593 713e bad3 cfbc
00000270: 443e 583f 561f 3fbf 6aad 8b3f 9488 3d3f
00000280: bb69 abbe b09b 803f a4ed b2bf aa2e 9c3f
00000290: 2fb2 8d3f 967b 8e3d 2585 773f 3a30 e13e
000002a0: 55b0 e23e 21cd cc3e 702f 9abf d375 563f
000002b0: db1a a1bf 5527 a63e 8442 9e3f c2cc cdbf
000002c0: 2002 e23e da06 83c0 9d2b 863e 60c5 9a3f
000002d0: 65cf 5640 121f 4e3c b5fe 3340 467e 55be
000002e0: 0c53 0dbf a34c f03f 81a7 ae3d a8b2 ec3f
000002f0: fabd 723e 74eb 903e aecd 6fc0 624e 6b3f
00000300: 3964 8ac0 8d52 1fbd 36b6 ae3f 754f 3dbf
00000310: fb22 4c3f 5b83 febe 4130 ed3e 7ae1 873f
00000320: 262a 9c3f d129 7a3e 6cbf 8f3e 4c86 183f
00000330: 4afb 2dbe 5b0a 203f eda3 a33e a5c8 1f3f
00000340: 6f28 4f3f 3f2d 6f3e 1596 603f 98b4 fc3e
00000350: 64c8 c13e 1697 2e3f 27d1 e03e 3f8e c1bc
00000360: 3901 ed3e 5cc9 f23e 29cf 953e 2c41 3f3e
00000370: a5a8 fbbe 0fe9 d33f 696d 4ebf a387 543f
00000380: 5a2c 863f f80e 16c0 2435 923e 226e 78c0
00000390: d157 513f 9235 9e3f eadb e23f 35b4 f03d
000003a0: 8893 ec40 edb9 493f 7001 efbe da77 4440
000003b0: 30aa e83d efc0 1540 10bd a7be b153 04bf
000003c0: cbd0 57bf 1ea2 793f a86a 43c0 245a 4e3f
000003d0: 005a 913f a7b6 dabf 3cee f83e 76bd 24c0
000003e0: 8a1a cc3e a22e a13f 230d 5d3d e0df 593f
000003f0: 4ea1 63bf a779 843f 576d 763f c2b9 2540
-1.3314412 0.7004091 -1.9244479 0.8101595 1.3480041 0.55249816 0.4829295 0.02527007
-0.218401 -0.11421868 -0.78621477 0.92433447 -0.07330673 0.50716394 0.6524367 0.2824584
0.5322467 -0.014632622 0.99295014 0.6306407 1.3981352 0.33493575 -0.038691476 0.655138
0.58555466 0.33118382 0.3852786 -0.056868102 -0.34505293 -0.064141236 0.17113382 0.98437244
-0.18276793 0.45367396 0.24652362 -0.3142 0.9964441 -1.4462037 1.172994 1.2943112
-1.5860047 0.2936442 -1.7066748 1.502932 1.458748 0.16036026 0.24294694 0.29061195
0.62086695 0.81176543 -3.1861343 0.708389 -4.9093223 0.67634845 1.4021549 0.30217925
0.15309812 -0.21916343 0.18658671 0.4891097 -0.52579457 0.18814148 -0.37615073 0.70590544
0.7326961 -2.7363038 0.790079 -2.9244514 0.49880296 1.4032633 -0.6000766 0.36889106
-0.6564173 0.5557752 0.99148184 -1.864099 1.5090536 -1.1641695 0.5651795 1.0767101
-0.01659118 -0.017751109 -0.17198987 0.27062902 0.5685692 -0.053026576 0.65495783 -0.09256598
0.37715575 0.7574774 -1.4189802 1.2147603 -0.2070762 0.69841814 1.2089067 0.3520519
1.1073487 -0.34897193 0.7291108 1.0460259 0.61294144 0.9481767 0.8059888 0.2522354
0.2420144 0.2541884 1.1578557 0.7802005 0.10762384 0.45920378 1.889039 0.33452514
0.8098387 -0.06932343 0.34305805 -1.4841957 0.876046 -1.9302254 0.37526378 0.8329981
2.5560932 0.47336602 1.5393274 -0.68636525 0.0923717 -3.2759404 0.53379184 -3.9890063
-0.23249479 1.1933948 -0.7126384 0.8339579 -1.8290274 0.99988705 1.4654534 1.3254976
0.5882671 3.510399 0.7604499 -0.19536296 2.3142598 0.20181644 2.4534502 0.056412324
-1.0698624 1.1196883 0.5999435 1.0186011 -0.026222609 0.062096696 1.5730945 0.6126121
0.018761657 0.2341278 0.2359124 -0.025369514 0.8447001 -0.7465719 1.0912297 0.74036527
-0.33479103 1.0047512 -1.3978772 1.2201741 1.1070002 0.06957166 0.9668754 0.43982106
0.44275156 0.4000025 -1.2045727 0.83773535 -1.2586321 0.32451883 1.2364049 -1.6078112
0.44142246 -4.0945864 0.2620515 1.2091484 3.3564084 0.01258065 2.812421 -0.2084895
-0.55204844 1.8773388 0.085280426 1.8492022 0.23705283 0.28304636 -3.7469287 0.9191648
-4.324734 -0.038897086 1.3649356 -0.73949367 0.79740876 -0.4970959 0.46325877 1.0615685
1.2200363 0.24430014 0.2807573 0.5957992 -0.1699039 0.625158 0.31961003 0.62415534
0.8092107 0.23357104 0.87729007 0.49356532 0.37848198 0.6819929 0.4390957 -0.023627399
0.46289995 0.4741925 0.29259613 0.18677205 -0.49152103 1.6555499 -0.80635697 0.83019465
1.0482285 -2.3446636 0.28556168 -3.881722 0.8177462 1.2360098 1.7723362 0.11753122
7.393009 0.78799325 -0.46680784 3.0698152 0.11360586 2.3399007 -0.3276143 -0.516902
-0.8430297 0.97512996 -3.0533848 0.80606294 1.1355591 -1.7086991 0.48619258 -2.5740638
0.39863998 1.2592356 0.053967606 0.8510723 -0.88918006 1.0349625 0.9626059 2.5894628

net.0.bias f4 [64]
00000000: 9aea 223f 2a6d ae3e c36c 483f f5a0 983f
00000010: 0eda 7e3e a462 7f3e fc0a ab3e d2b8 273f
00000020: 6980 cebd 99b1 293f d12a ed3e 0994 003e
00000030: 2924 173f 7059 6b3e 240e 063f 5ba0 743f
00000040: 7dec 003f 5581 8a3f 9d6d cf3e dae3 633f
00000050: cbc5 793f 59ae 813f d6f2 083f 0061 183f
00000060: 2ecf 043f 23b7 663e 5f09 303f eadc 853e
00000070: 62e5 c23e 6250 153f d956 05bd 3489 8c3f
00000080: fd04 2c3f f57a 803f 2c8e 913e caff d5bc
00000090: 2be4 063f 23e9 513c c9c1 e63d 50da 083f
000000a0: 889b bb3d ec20 883e f9b1 853f 161e 243f
000000b0: 2075 f93e be02 143f 114d 813f 558c 2d3f
000000c0: 07b3 a93d f226 fa3e ce71 4d3f 7a50 313f
000000d0: d4e5 a53e eec8 853f cd4d 273f 0324 483f
000000e0: 6ebb 793f 2f28 203e 2c1e ac3e 3aa2 ce3e
000000f0: c029 643f 7282 6d3f 0142 2f3e 0e1d 0e3f
0.63639224 0.3406766 0.7829096 1.192412 0.24887869 0.24939972 0.33406818 0.6551639
-0.10083086 0.6628662 0.4632173 0.12556471 0.5903955 0.22983336 0.52365327 0.95557183
0.5036085 1.0820719 0.40513316 0.8901955 0.97567433 1.0131332 0.5349554 0.5952301
0.5187863 0.22530799 0.687643 0.26145107 0.3806563 0.5832578 -0.032553528 1.0979371
0.6719511 1.0037524 0.2842878 -0.026122946 0.52691907 0.012811932 0.1126743 0.5345812
0.091605246 0.26587617 1.0444938 0.6410841 0.48722172 0.57816684 1.0101644 0.67792255
0.082861 0.48857838 0.8025178 0.6926342 0.32401907 1.0451944 0.6535309 0.7817995
0.9755162 0.15640329 0.3361677 0.40358144 0.89126205 0.9277717 0.17115022 0.55513084

net.1.weight f4 [64]
00000000: 3d8d 493f 0a2b 263f 8ac4 803e b799 0bbf
00000010: f0ef 793f b47e 463f 527a 463f ad71 57be
00000020: c5a7 8e3f 72e4 8d3e e69d 3c40 3155 d33e
00000030: 2dac f93e e52a 0c40 68d3 5c3e 4e08 b5bf
00000040: c299 8d3c 8020 a53c 9274 2e3f 89f3 9dbe
00000050: 58d8 e63e 140c 9c3f a186 1940 e09f 643f
00000060: 17b9 4d40 e77e 7040 253f c13e 130e 0940
00000070: 82cf 2d40 aacc c93f 0df4 0c40 4367 b1be
00000080: 807c 29bc 5115 1cbd 61c3 443f 38ce f83f
00000090: abdb 5840 86e8 a63f 4cf7 6940 d347 e53e
000000a0: fff8 0140 cf2b 253f 0428 f73e 21fc 173d
000000b0: c0b5 07bf 8f2c 1c40 90f7 3b40 41ba 5840
000000c0: cfc4 ae3f 5588 f43f 974f f0bd 0692 2840
000000d0: a27e ea3e 10de 4e40 b4b0 ad3f d3da 963f
000000e0: b500 6d3e d0f8 b53f 9fb6 1540 5273 583f
000000f0: 622e f83f dc08 003f c91f bb3f 9e87 06c0
0.7873114 0.6490942 0.25149947 -0.54531425 0.9763174 0.77537084 0.77530396 -0.21039458
1.1144949 0.27713352 2.9471374 0.41275933 0.48764172 2.190118 0.2156502 -1.4143159
0.017285232 0.020157099 0.6814662 -0.30849865 0.45086932 1.2191186 2.398842 0.8930645
3.214422 3.7577455 0.37743488 2.141484 2.7157903 1.5765584 2.2023957 -0.34649095
-0.0103446245 -0.038106266 0.76860625 1.9437933 3.3884075 1.303971 3.6557188 0.4478136
2.0308225 0.6451997 0.48272717 0.037105683 -0.53011703 2.4402196 2.936985 3.386368
1.3653811 1.9104105 -0.117339306 2.6339126 0.45799738 3.2323036 1.356955 1.178553
0.23144801 1.4216557 2.3392713 0.84550965 1.9389155 0.5001352 1.4619075 -2.1020274

net.1.bias f4 [64]
00000000: 6a9b e7bd 83b9 15bf 633f b3be b9e2 6cbf
00000010: 8fef 2fbe 761b c7be 2bfd 39bf b937 91be
00000020: 8f4a b2bd 2ba5 93be 0360 033f 49ce 1ebf
00000030: 5d6b f2bd 2899 743c ef41 a5bb dd70 023f
00000040: d6f0 14bf 3c9b 2cbe 84bd 0bbe 9cd0 f8bb
00000050: f91f b8be 9b9b 9ebf d7f5 7dbd 1aa1 6fbe
00000060: e776 f53e adfa 4e3e 745f 3dbf 0805 ad3e
00000070: 6856 203d 273d 93be 392d 403d d8d0 32bd
00000080: 0fb8 9ebe ccd1 c1bd bef3 443e d14b c9be
00000090: 7a5e 02bd 3380 d4be 4b63 513e 9ba2 07bf
000000a0: 9f03 4c3b e8a7 d5be c47e 01bf 66c8 23bf
000000b0: a32e 58be fc87 fb3e 9071 2bbf 38b2 8a3e
000000c0: f833 683c 3d83 a63e d1e5 d4be 9576 7f3e
000000d0: efdb 2dbe 7b8b 473e 92ca 3c3e 3ede 58bf
000000e0: 61d9 c03e 88c5 09be f7ce 91be 9178 ffbe
000000f0: 6787 f6be e759 5bbf 2fd9 30bf a3d1 363d
-0.1130894 -0.58486193 -0.35009298 -0.9253345 -0.17181228 -0.3888814 -0.7265193 -0.28362826
-0.08705627 -0.2883695 0.5131838 -0.62033516 -0.11836884 0.014929093 -0.0050432603 0.50953466
-0.58179986 -0.16856092 -0.13646513 -0.0075932276 -0.35961893 -1.2391237 -0.06200203 -0.23401299
0.47942278 0.20212813 -0.73973775 0.337929 0.039144903 -0.28757593 0.046918128 -0.0436562
-0.309998 -0.09463844 0.19233605 -0.39315656 -0.03182838 -0.41504058 0.20448034 -0.5298249
0.0031130088 -0.41729665 -0.50584054 -0.6397766 -0.2111154 0.49127185 -0.6697016 0.27089095
0.014172547 0.32522002 -0.41581586 0.24947579 -0.1697843 0.19486801 0.1843665 -0.84714115
0.37665847 -0.13454258 -0.28478214 -0.49896672 -0.4815018 -0.85684055 -0.69081396 0.04463352

net.4.weight f4 [32, 64]
00000000: f2d4 373d dc8d f33c 0738 1b3f 13ee 143f
00000010: 38fc 0ebe e22a cebe 2396 3e3f 4dd3 1ebf
00000020: b903 f2bc bbe8 6abe 7976 f83e 2901 2e3f
00000030: 27d6 ca3e 63b6 bd3e 103e cfbe e2b3 aa3f
00000040: 9ad1 d53e 083c 8f3d f74d 48bf 2c2d 5fbe
00000050: 4ba6 ab3d 8417 513f de4c 73bf 7968 313e
00000060: 2154 abbf ca6c 2c3f 0886 443f 7b8d 49bf
00000070: e510 173f 45ba 7d3e f5e8 c3be c961 753f
00000080: 1e46 193e afd3 e73d 32c9 5d3e 72c2 033f
00000090: 43b6 c1bf 8544 133f 6f51 123f fdf0 113f
000000a0: 29cc df3c 6ee0 a63e c000 bcbd 59dd 2a3f
000000b0: fd78 aabe 7610 ae3e 2165 65bf 5633 bf3d
000000c0: 2c2a da3e 983c 393e 3c70 0d3f 23f1 31bf
000000d0: d303 85be ebb3 86c0 3e14 af3e bde3 243f
000000e0: 7948 60bf 0812 113f ef7c d43e 96c3 f13e
000000f0: 0367 acbf 840e 6ebe 47a5 d03e a864 8dbc
00000100: 9ab3 91bf 7b47 263e b78c b9be da60 adbd
00000110: d111 223f 90d5 81be e037 2ebe 4a3f c9be
00000120: 9a90 82bf 66df 12bf 3e9b a0bf f919 3a3e
00000130: f298 47bf edbd 81bf ae45 f9be aeed e1bd
00000140: df29 3dbe 52f8 d8be ddb1 1a3e 5432 8f3f
00000150: 762f 183f 8cb5 8ebe 7630 d23e 616a 8a3d
00000160: 0065 0d3f ed7d 7bbf 68e5 473f 586f 043e
00000170: d60e 323f 120e 123f 3e67 3ebf af21 6abd
00000180: 81b5 bebe b84b 98be 710a 7bbf c58b cbbe
00000190: ce92 b33f f763 0f3f abb6 83bf 53af 4dbf
000001a0: fad7 f5be 2bd5 253f 4393 87bc 5b15 0c3b
000001b0: 2359 363f b1cc 6abf 1321 0e3f e9da fa3e
000001c0: 3d31 33bf e21d b3bf 6ee1 3d3f cf77 cc3f
000001d0: 0034 f9be 9424 1bbf de26 78bf a1e0 a2bd
000001e0: 936c 933f 7549 7fbf 1be0 c8bf a8b8 aa3e
000001f0: fd7a 07bf b64b 363f 73f3 09be b185 89bf
00000200: 1dca f23c 6f78 84bf c5c3 4abf aef0 043f
00000210: 4ada a3bd 7aa2 18bf 8ec9 34bf f453 2dbf
00000220: bc43 ebbe 3007 fe3e 4101 1e3e 9522 fcbe
00000230: f0ae ab3e e7bb 95be 9c33 bf3e 355b 3ebf
00000240: 7d0d 733e 33ae 513f a1da e03f 7f30 c9bd
00000250: b328 6d3f 83ec 15bf fe80 32bf f9cd 0dbf
00000260: 8e89 c4bd 8719 84be 2989 433d dac0 60bf
00000270: 238b 42bf d340 36be b1d2 98bf c197 1c3f
00000280: 09f9 a13e 44f9 243f 724f 40be 2978 3ebf
00000290: ec85 78be abda 1bbf 6aaf 4dbe 6c5d 14be
000002a0: 7d91 88bf 49bb ddbe ad75 b63e d0f4 a63e
000002b0: df80 59be 5018 db3d 5366 de3e cf50 45bf
000002c0: 5115 9cbe d63e 05be 1655 adbe 028c 4a3f
000002d0: d36b 45bf 6223 753f bba2 a3be 4fc6 f7be
000002e0: bcf8 b93e 942e d8be 470e 273d 4371 813f
000002f0: afad 2a40 6f31 e13e e753 80bf c826 213f
00000300: fa0e 0f3f 7adf 223f 657c 253f c771 bbbe
00000310: 020f 4d3e 4f6b 113f 352f 843f 594a 8f3e
00000320: 3d02 363f 7907 3bbf 7d4d 8f3f 052d 233f
00000330: 8963 cd3e 8de7 5a3f 5fbc dd3f 6997 6bbe
00000340: eb16 0c3f ad78 0dbf 68f8 8d3f b4ae 2bbf
00000350: a850 2cbf 534d d13d d25a e63d 0a79 503f
00000360: ae05 dbbf 0969 893f efd8 293f 50ed 3d3f
00000370: f3e8 54bf 0c31 01bf 8705 053f 939a db3e
00000380: 0c1d 83bf b62c 05bf f12f 5c3f 96e0 353f
00000390: 14b6 06c0 0587 823d 9a69 6b3f a794 373f
000003a0: 870f 3a3f e6c8 b4be 355d 4ebf 66d6 273f
000003b0: 9ce3 b7be 88a8 7a3f 5ffe 53bf 8aab 6cbf
000003c0: 783a 283f 6249 7b3f 420e 953e 7f81 a0be
000003d0: 0095 483f db82 c53b f74b 573f a608 4a3f
000003e0: fa27 82bf 81c7 3c3f a161 653f 41bb 56bf
000003f0: 20e2 283f c2b0 4bbf d1a7 483f a753 653e
0.044880815 0.02973073 0.60632366 0.5817577 -0.13963401 -0.40267092 0.7444784 -0.6204117
-0.02954279 -0.22940342 0.48527887 0.6797052 0.3961651 0.37053213 -0.40477037 1.3336146
0.41761476 0.06993872 -0.78243965 -0.21794575 0.08381327 0.81676507 -0.95039165 0.1732501
-1.3385049 0.673535 0.76767015 -0.7873151 0.59010154 0.24778087 -0.3826367 0.95852333
0.14968154 0.11319672 0.21658781 0.51468575 -1.5133747 0.5752643 0.5715551 0.57008344
0.02731903 0.325931 -0.091798306 0.66744 -0.33295432 0.33996934 -0.89607435 0.093359634
0.426103 0.18089521 0.5524938 -0.6950857 -0.2597948 -4.2094626 0.3419513 0.6441
-0.87610584 0.5666814 0.41501567 0.47219533 -1.3468937 -0.23247725 0.40751097 -0.01725991
-1.1382935 0.16238205 -0.3624017 -0.084657386 0.63308436 -0.25358248 -0.17013502 -0.39306098
-1.0200379 -0.5737213 -1.2547376 0.1817397 -0.7796775 -1.0136086 -0.48685974 -0.11031662
-0.18473004 -0.42376953 0.15106912 1.1187234 0.5944742 -0.27872884 0.41052598 0.067585714
0.5523224 -0.9823902 0.7808442 0.129331 0.6955389 0.5705272 -0.74376285 -0.05716103
-0.37247851 -0.2974527 -0.9806281 -0.39755073 1.4029176 0.5601191 -1.0290121 -0.8034565
-0.4801634 0.64778394 -0.016549712 0.0021375034 0.7122976 -0.91718584 0.5551922 0.4899514
-0.69997007 -1.3993495 0.74172103 1.5974063 -0.48672485 -0.6060269 -0.96934307 -0.07953001
1.1517509 -0.9972146 -1.5693392 0.33344007 -0.5292204 0.71209276 -0.13471775 -1.0743924
0.02963739 -1.0349253 -0.7920497 0.5192975 -0.0800062 -0.5962292 -0.7062005 -0.6770623
-0.45950115 0.4961486 0.15430166 -0.49245134 0.33531904 -0.2924492 0.37344062 -0.7435792
0.23735614 0.8190643 1.756672 -0.09823703 0.9264023 -0.58564013 -0.69728076 -0.55392414
-0.09596549 -0.25800726 0.047738228 -0.8779427 -0.75993556 -0.17798166 -1.1939298 0.6116906
0.3163531 0.6444285 -0.18780306 -0.744021 -0.24269837 -0.60880536 -0.20086446 -0.14488763
-1.06694 -0.4330695 0.35636654 0.32608652 -0.21240567 0.106979966 0.43437442 -0.7707643
-0.30485013 -0.13012251 -0.33853978 0.79119885 -0.7711765 0.95757115 -0.3196009 -0.48393485
0.36322582 -0.42223036 0.0407851 1.011269 2.6668508 0.43983027 -1.0025605 0.629498
0.5588223 0.6362225 0.64642936 -0.36610243 0.20025256 0.56804365 1.0326906 0.2798641
0.71097165 -0.7305828 1.1195523 0.6374057 0.40115002 0.8550957 1.7323111 -0.23006977
0.5472247 -0.5526226 1.1091433 -0.6706345 -0.6731057 0.102198265 0.11247791 0.8143469
-1.7111108 1.0735179 0.6634664 0.74190235 -0.8316795 -0.50465465 0.5196156 0.42891368
-1.0243239 -0.5202135 0.8601065 0.71045816 -2.1048632 0.06373409 0.9195801 0.717112
0.7267994 -0.35309523 -0.8061097 0.6556152 -0.3591584 0.9791341 -0.82810014 -0.9244925
0.65714216 0.9815885 0.2911244 -0.31348798 0.78352356 0.006027562 0.8410029 0.78919446
-1.016845 0.7374192 0.89602095 -0.83879477 0.6597004 -0.79566586 0.7838107 0.22395192

net.4.bias f4 [32]
00000000: 258d 963e 263b a0bf 3a5c 13bd a134 583f
00000010: ee8f 8f3d b7db 103f 4359 c43d daf1 a6bf
00000020: a395 3ebf ef21 a3bf 9d54 92bf 9924 6c3f
00000030: c176 38bf 8f69 a43e 7fee 94bf 9106 8fbf
00000040: 55a2 18bf 65cc 013e ccd9 1dbd 2393 e83e
00000050: 48d8 3b3f 0dbf fc3d 0f51 373f 7bde 943e
00000060: afb0 343f 58ea 8e3e 0a8e bd3e 3379 fe3e
00000070: 8085 f23d 752c 94be 3315 80be 64bd f2bc
0.2940456 -1.2518051 -0.035976626 0.84455305 0.07009874 0.5658526 0.09587338 -1.3042557
-0.7444708 -1.2744731 -1.1432072 0.92243344 -0.72056204 0.32111785 -1.1635283 -1.1173879
-0.596227 0.12675627 -0.038537785 0.45424756 0.73376894 0.123411275 0.7160806 0.2907599
0.705821 0.27913165 0.3702243 0.49701843 0.11841869 -0.28940168 -0.25016174 -0.029631324

net.5.weight f4 [32]
00000000: 8129 363f 00ea 63be dd67 073f 258b 063f
00000010: 06a9 4d3f b8a9 093f e1b6 e33e 6675 1e3f
00000020: 6632 183f 569c 343f a5ef 5b3f 3667 debd
00000030: 3049 773c 072f 223f 73ce 3b3f c15a 20be
00000040: aa36 b3be ad85 523f 0166 223f f8e0 553f
00000050: 1079 d93e df75 87be 1b58 623e 1293 1f3f
00000060: 97a4 e3be 0ee3 053f e68b 4e3f b64e 5b3f
00000070: d25f 9d3e c41c aa3e 766d e0be 6eae f43e
0.7115708 -0.22257233 0.5289286 0.5255607 0.80336034 0.53774595 0.44475463 0.61897886
0.594519 0.7055105 0.85912544 -0.1085953 0.015093133 0.6335301 0.7336189 -0.1565962
-0.35002643 0.82235223 0.63436896 0.835464 0.42475176 -0.26457116 0.22103922 0.62333786
-0.4446151 0.5229958 0.8068222 0.8566698 0.30737168 0.3322507 -0.43833512 0.4778933

net.5.bias f4 [32]
00000000: d5c2 00bf 131c d1be 0b86 39bf e5e5 3ebf
00000010: b382 a7bd 23e4 38bf 629a 41bf a888 813c
00000020: 7fbb 20bf 836a 8c3e 6d38 37be c7af 71be
00000030: 6934 58be 8399 ffbe 2ab3 173d 57e5 4cbf
00000040: ac6b e8be 641d 03be ac9e c3be 4e29 5abf
00000050: 775f 36bf 9d34 78be 8c33 e9be da3c 60bf
00000060: 921d 39be 9f7e 23bf 2a19 dbbe 1376 80bf
00000070: b4c4 febe 742e 10bf ec70 9dbe 45cf 49bf
-0.5029729 -0.4084173 -0.7247016 -0.7456954 -0.08179226 -0.7222311 -0.75626194 0.015812233
-0.62786096 0.27425012 -0.17892618 -0.2360221 -0.21113743 -0.49921808 0.0370361 -0.80037445
-0.45394647 -0.1280418 -0.38206995 -0.85219276 -0.7123942 -0.2423882 -0.4554714 -0.8759285
-0.18077686 -0.63865083 -0.42792636 -1.0036033 -0.49759448 -0.5632088 -0.30750215 -0.78831893

net.8.weight f4 [16, 32]
00000000: a5b4 543e f013 a7be 51b9 d63e 5b1f e9be
00000010: a9dc 04bf 541e e6be a5fd c53d d8fc 5ebf
00000020: 0604 493f bb19 5a3e 6996 ab3e 98fa 84be
00000030: a955 1fbf 2bca 9d3a a3d9 dbbe cd32 713e
00000040: 8afc bdbe 308d 8b3e d6a8 64bf 5b65 893d
00000050: 923e 9abe 0a6e 663f b9b3 2cbd b5b3 0d3f
00000060: a816 063e 8ab6 00bf 9563 193e 3206 bb3d
00000070: 51f8 2fbf 4973 b23e 6b8b 84bd a315 a13e
00000080: b5ab e0be 141b 943e 17e4 12be ae59 c8be
00000090: 5ee4 dc3d e103 45bf f2d3 68be aaa0 b8be
000000a0: 2efb 023f 702d 143a 3e18 12be b79c af3e
000000b0: 4786 80be 80a1 68bf 50a3 59bf 706f 373e
000000c0: 1799 bdbe 8ab6 d1bd 755a 853e 4db9 47bf
000000d0: d2db 87bf 909a cdbe 0478 c0be a74d 91bf
000000e0: dd15 743e 7c38 0c3f ec75 18bf 9582 65be
000000f0: f6c9 bd3e c0cd 0abf 0460 a93e a839 38bf
00000100: 1013 b1be 9d3c 1f3f 58f2 13bf c8f8 d1be
00000110: e98b b1be 1fc5 d7be 34ce 20bf 1293 bdbe
00000120: 37f5 0c3f be17 0dbe bcca 0cbf 2119 0e3f
00000130: 43dc 9d3e 9c7b a8be fe13 e13d daab 8d3e
00000140: ede0 1d3f 820f 043c 741a afbe 00c4 82be
00000150: e0e5 b8be e072 a0be fa25 80be 1ee3 0cbe
00000160: 2c2b 143f c6ff a73c 4340 a1be 942c c1bd
00000170: d4c9 b13e 3246 ddbe 5b57 d53e c05c b0be
00000180: 249e 4cbf 7fd7 e13b 49ee e9be d922 1cbf
00000190: 904b 13bf 9093 0cbf 939f 1abe 8be0 a33e
000001a0: eb15 293f 0d63 823e 9c42 663e 5400 dd3e
000001b0: 6a4b ad3d e972 3dbf 51dc 0b3f b760 df3c
000001c0: 4886 b9bd 74dc acbe c583 99be edcc efbe
000001d0: 3379 37bf 4727 e7be 4ff8 94be 841d 39bf
000001e0: 5a1e cdbe 56cd 833e eb2e 0fbf ff05 24bf
000001f0: 8485 ca3d 15d4 bbbd 9371 17bf 361f 6abe
00000200: c332 25bf 5a89 6bbe 83c6 3ebf ac4d d2be
00000210: 111b 45bf 9fd9 66bf 8432 14bf f36f 753f
00000220: f755 b93e 6397 e33e 9c77 173f f342 20bf
00000230: 515e 303e 4ab3 5abf a412 dc3e fdab 64be
00000240: f9b5 1cbf e957 5bbe a745 b8be e57f 3dbf
00000250: b1a7 b4be ec84 3bbe e27a dfbe d31c 0fbf
00000260: a3f7 6fbe d512 35be 028f 8fbf 5d11 28bf
00000270: b4bf a33e b089 84bd 4f2f 9ebf e7fd f7be
00000280: 60d0 cdbe b5b3 0f3f ff91 b0be 0dde afbe
00000290: 2a80 78be 4cec b7be 7280 16bf 059e ad3e
000002a0: 6e3c ba3e 0f86 b53d d526 46be e64e 8f3e
000002b0: dc1d ac3e 9d5e 2bbe 538e cebc 3a04 db3e
000002c0: a1d7 283f 9822 aabe bde7 79be 2c6b 08bf
000002d0: 0e79 2bbe e465 93be 7ca1 cdbe 675d 3cbe
000002e0: 66c4 493f b4b4 863d f74d 1dbf f732 dabd
000002f0: f39a 4b3f e8f3 52be fa80 fe3e 2848 f6be
00000300: e840 17bf fd59 483d 5386 bcbe 0835 d1be
00000310: c6a8 13bf cbb1 18bf 556d b8be f315 033f
00000320: 4701 1e3f f714 0f3f 43c4 1d3f d415 77be
00000330: a97e 153e 1720 58bf d085 103f 8345 c7be
00000340: 4dc2 93be 971b 4abf 6b6a 48be 9022 77bf
00000350: 6f28 1fbf 6063 e1be 259e e7be 2fcf 5ebf
00000360: dc17 87be 273c 0b3f 8457 13be 32b9 65bf
00000370: f76a d53d c216 0abf c9e3 e2be 27f0 c7be
00000380: 24a1 10be 21ae 10bf bf29 943e 6d29 bebb
00000390: 5833 533e cdc8 e1be 4f9f 31bf e93a 52be
000003a0: b446 85be aa6e e6be b859 19bf 19e0 b2be
000003b0: bbd9 123f 324b f93e 9264 9cbe 0ebf 873e
000003c0: 7125 3b3e e533 12bf 0e75 913e e9cf 48bf
000003d0: c6ff 6bbe fccc 403f facd 3abe b01d ad3e
000003e0: 4bfe cfbe dc84 92bf f626 303c 192f db3e
000003f0: 977a 38bf bfaa 533f 5726 343d 5f61 5a3e
0.20772035 -0.326324 0.4193826 -0.45531735 -0.518992 -0.44945014 0.096675195 -0.8710456
0.78521764 0.21298878 0.3351319 -0.25972438 -0.6224008 0.00120384 -0.4293948 0.23554535
-0.37106735 0.27256155 -0.89320123 0.06708785 -0.30125862 0.90011656 -0.042163584 0.55352336
0.1309458 -0.5027853 0.14979394 0.09132041 -0.68738276 0.3485358 -0.06471904 0.3146182
-0.43881002 0.2892691 -0.14344822 -0.3913092 0.10785745 -0.76959044 -0.227371 -0.36060077
0.5116452 0.00056525227 -0.1426706 0.3429925 -0.25102445 -0.9087143 -0.8501482 0.17913604
-0.3703086 -0.10239895 0.26045576 -0.7801712 -1.0613959 -0.40156984 -0.37591565 -1.1351823
0.23836465 0.5477369 -0.59554935 -0.22413094 0.37068146 -0.542202 0.33081067 -0.71962976
-0.34584856 0.62201864 -0.5779166 -0.41010118 -0.34677055 -0.4214258 -0.6281464 -0.37026268
0.5506167 -0.13778588 -0.5499685 0.55507094 0.3083211 -0.32906806 0.10990141 0.27670175
0.61671335 0.008060338 -0.3419987 -0.2554016 -0.3611288 -0.31337643 -0.25028974 -0.13758513
0.57878375 0.020507704 -0.3149434 -0.09432331 0.34724295 -0.43217617 0.4166821 -0.34445763
-0.79928803 0.006892144 -0.4568961 -0.60990673 -0.57537174 -0.5491266 -0.15099935 0.3200725
0.6604907 0.25466195 0.22486347 0.43164313 0.0846165 -0.74003464 0.5463305 0.027267797
-0.09058815 -0.33761942 -0.29983345 -0.46836033 -0.7166931 -0.45147154 -0.29095694 -0.7231066
-0.4006222 0.25742596 -0.55930966 -0.6407165 0.09888747 -0.09171311 -0.59157676 -0.22863469
-0.6453058 -0.23001614 -0.74521655 -0.41074884 -0.76994425 -0.90175813 -0.5788958 0.95873946
0.36198398 0.44451436 0.59166884 -0.62602156 0.17223479 -0.85429823 0.42982972 -0.22331233
-0.6121517 -0.21420254 -0.3599064 -0.74023277 -0.35284188 -0.18312424 -0.4364844 -0.5590336
-0.2343431 -0.17682965 -1.1215518 -0.65651494 0.31982195 -0.06471574 -1.2358187 -0.484359
-0.4019804 0.56133586 -0.34486386 -0.343491 -0.2426764 -0.35922468 -0.5878974 0.33909622
0.3637423 0.0886346 -0.1935075 0.27989882 0.3361653 -0.16735311 -0.02521435 0.42776662
0.65954024 -0.33229518 -0.24404807 -0.5328853 -0.16745397 -0.28788674 -0.40162265 -0.18395005
0.78815305 0.06577435 -0.6144709 -0.10654252 0.7953331 -0.20600855 0.49707776 -0.48101926
-0.59083414 0.048913945 -0.3682123 -0.40860772 -0.576794 -0.5964629 -0.36020914 0.51205367
0.617207 0.55891365 0.61627597 -0.2412942 0.14599098 -0.84423965 0.5645418 -0.3892022
-0.28859177 -0.7894835 -0.19571845 -0.96537113 -0.6217107 -0.4402113 -0.45237842 -0.8703489
-0.2638539 0.5438866 -0.14388853 -0.8973571 0.104207925 -0.53940976 -0.4431441 -0.3905041
-0.1412397 -0.565157 0.289381 -0.005803278 0.20625055 -0.4409851 -0.6938371 -0.20530285
-0.26030505 -0.45006305 -0.59902525 -0.34936598 0.5736348 0.48690182 -0.3054548 0.2651295
0.18276002 -0.57110435 0.28409618 -0.78442246 -0.23046789 0.7531278 -0.18242636 0.33811712
-0.40623698 -1.1446795 0.0107514765 0.4280937 -0.7206206 0.8268241 0.043981876 0.21326207

net.8.bias f4 [16]
00000000: 15b4 58bf 5e99 1abf 1b57 4bbf dd13 3b3e
00000010: 6752 923e 06ba 45bf aef9 1e3e 0b34 29bf
00000020: 7e1c 70be e28a bdbe 57c0 b23e d48f e0be
00000030: 245b 5cbf e46d 2cbf 3c14 a3be eb1b b3be
-0.84649783 -0.6039027 -0.7942979 0.18269296 0.28578493 -0.77236974 0.15524933 -0.66095036
-0.23448369 -0.37020022 0.3491237 -0.43859732 -0.8607657 -0.6735518 -0.31851375 -0.34982237

net.10.weight f4 [1, 16]
00000000: 4574 d5bc 9e25 823d a530 7b3e 688a 4abe
00000010: bcfe b1be cf02 2e3e 0e10 80be dc3d 0abc
00000020: bcc9 633d 18a7 033d c463 80be f1f9 543c
00000030: d40e 833e fa1f 073e df25 6e3c 9109 32be
-0.026056418 0.06354831 0.24530275 -0.1977936 -0.3476466 0.16993259 -0.2501225 -0.0084376
0.05561231 0.032141775 -0.25076115 0.012999044 0.2559725 0.13195792 0.014535396 -0.17386462
